ovos-docker-install/config/hey_k9.tflite (tflite, 21888 bytes, 10 tensors)

sequential/dense_1/MatMul f4 [1, 20]
0.3474468 -0.22692558 0.35009226 -0.42549834 -0.20620762 -0.40845492 0.12980615 -0.3762165
-0.6411481 -0.3019682 -0.33974972 0.7447196 -0.15049751 0.70035404 -0.71941257 -0.43400225
-0.5432302 -0.24707298 0.23157498 0.10897683
00000000: 8ce4 b13e 2e5f 68be 4b3f b33e ebda d9be
00000010: 1728 53be 0121 d1be e7eb 043e 739f c0be
00000020: 4822 24bf 939b 9abe adf3 adbe f2a5 3e3f
00000030: 051c 1abe 674a 333f 6c2b 38bf 8b35 debe
00000040: 2211 0bbf b300 7dbe fe21 6d3e 3f2f df3d

sequential/net/while/gru_cell/strided_slice_3 f4 [20]
-0.02590393 0.002363748 0.114429034 0.13953549 -0.06822228 0.016521176 0.103529274 -0.051816814
-0.07301122 -0.13723755 -0.123766415 -0.038626507 -0.07582831 -0.05352918 0.0020580394 -0.16881524
-0.10013741 0.035172362 0.07725444 -0.20786254
00000000: 7b34 d4bc 1ce9 1a3b c559 ea3d 64e2 0e3e
00000010: 1fb8 8bbd 6b57 873c 2807 d43d de3d 54bd
00000020: e886 95bd 0088 0cbe 3f79 fdbd d436 1ebd
00000030: df4b 9bbd 6a41 5bbd 2ce0 063b e7dd 2cbe
00000040: d814 cdbd e510 103d 9337 9e3d ebd9 54be

sequential/net/while/gru_cell/strided_slice_4 f4 [20]
0.3087076 0.20217028 0.008181844 0.17968142 -0.17689902 0.10829733 -0.007457145 0.062448464
0.024844186 0.0776264 0.032251514 0.057161614 0.13370109 0.17699529 0.16860773 0.067362286
-0.06980259 0.11450551 0.024863407 -0.0031191006
00000000: ec0e 9e3e ba05 4f3e 240d 063c 68fe 373e
00000010: 0425 35be feca dd3d 115b f4bb f6c9 7f3d
00000020: 0986 cb3c 97fa 9e3d 2a1a 043d 4c22 6a3d
00000030: f0e8 083e 413e 353e 81a7 2c3e 3df5 893d
00000040: a9f4 8ebd dd81 ea3d 58ae cb3c d369 4cbb

sequential/net/while/gru_cell/strided_slice_5 f4 [20]
-0.29792157 -0.11325353 -0.10708613 0.18434528 0.28450748 0.096566275 0.19597559 0.25813824
0.22137856 -0.13078089 0.34173205 -0.68322164 0.2731164 -0.251911 0.33616713 -0.061986133
0.47955534 0.042382102 -0.21643434 -0.36607498
00000000: 2d89 98be 77f1 e7bd f94f dbbd 02c5 3c3e
00000010: f7aa 913e 8ac4 c53d d3ad 483e b22a 843e
00000020: 10b1 623e 6deb 05be 81f7 ae3e 9de7 2ebf
00000030: ead5 8b3e 7bfa 80be 191e ac3e 2ce5 7dbd
00000040: 4788 f53e db98 2d3d f7a0 5dbe 2e6e bbbe

sequential/net/while/gru_cell/MatMul_3 f4 [20, 20]
-0.16765425 -0.1411454 -0.17309614 0.011467693 0.097493105 -0.052281037 0.08725449 -0.37257886
0.1651589 -0.24601363 0.16652909 -0.04134555 0.02615946 0.048970558 -0.04231753 0.28827658
-0.008884597 -0.0519761 -0.012099162 -0.010192631 0.09715147 0.04272009 0.11635265 0.15210223
-0.023317847 0.01831479 -0.11903608 0.25013506 0.11848927 -0.086149625 0.19990917 0.02932225
0.13685119 0.060836487 0.19583291 0.17629813 -0.03167457 -0.056139782 0.20192023 -0.007375927
-0.0141612 0.08970752 0.25575754 -0.01924447 -0.096571356 -0.30485958 -0.19540808 -0.03225132
0.18926385 -0.25195363 0.053820934 -0.28350788 0.028619252 -0.038434107 -0.07722477 -0.008292236
-0.094979584 0.091802835 0.19623004 -0.29208195 -0.11194108 0.2206726 0.13389853 -0.044439346
0.0010645151 -0.04524869 0.1223952 -0.15675811 -0.10517479 -0.1693356 -0.007644425 0.05362137
0.002119043 -0.1728808 0.15315305 0.009823412 0.13976535 0.054062232 0.011875076 -0.1152562
-0.14915632 -0.1276507 -0.022800058 -0.054699734 -0.18412359 -0.14035441 -0.14328095 0.008563538
-0.0750688 0.0754407 0.064933315 0.0170294 0.13533182 -0.060690854 0.34530872 0.3299065
-0.020508738 0.16048232 0.28024402 0.06274755 -0.047117356 -0.1672366 0.4284013 -0.012211323
-0.13420868 -0.27484632 0.20759046 0.102467634 -0.17595094 -0.33429152 0.26718375 -0.115788855
0.2809404 0.3091484 -0.07425228 -0.25934353 -0.039465275 0.36128378 -0.0910168 -0.41196162
-0.3141746 0.02270033 0.23448156 -0.032484695 0.32975402 0.1455407 0.24009563 -0.009636899
-0.105660625 -0.08314792 0.042592093 -0.11822089 -0.12390597 -0.38263777 0.31926653 0.18578616
-0.0156048555 0.20841739 0.0837692 0.12586807 -0.030371973 0.12179195 -0.15939234 0.23755533
-0.243834 0.27359414 -0.07412455 0.26441756 -0.3284175 -0.1363064 0.13909285 0.18660858
-0.23188686 -0.058821175 0.2977683 -0.08633247 -0.066723466 -0.04058829 -0.08952463 -0.008142879
-0.12301723 -0.030003503 -0.22698292 -0.020863889 -0.03900536 0.024744527 0.059598878 -0.09917683
-0.020222273 0.20681043 0.09685018 -0.090097845 -0.13826822 -0.14237241 -0.08053881 -0.1411428
-0.2023582 0.008801593 -0.15737209 -0.015524817 0.21659882 0.22425173 0.015055354 0.19359528
-0.12331547 0.4620174 -0.029470598 0.23065382 -0.042270005 -0.018984882 0.16222128 -0.09062106
0.13544713 -0.17247783 0.04531904 -0.09085638 -0.23160897 0.04543219 -0.08408873 -0.30634764
0.039389506 -0.091787025 0.24815741 -0.25936463 -0.15855208 0.0881487 -0.22545172 0.03514012
0.11765877 0.17274344 -0.31742612 0.24787909 -0.08433281 -0.21454738 0.108825706 -0.012997856
0.11296154 -0.061706096 0.061851524 -0.07347712 0.17487471 0.3506246 0.15020609 -0.26036596
-0.04065821 -0.41949588 -0.10526896 -0.08081985 0.16147695 -0.18680657 0.12292074 -0.15244237
0.09126626 0.071718425 -0.08699843 -0.30816188 0.08926656 0.092889875 0.23077084 0.19377144
0.23120268 0.007448417 0.079155505 -0.03837309 -0.065603934 -0.10787341 0.29477438 -0.025777387
0.16971755 0.17481965 -0.1781839 0.21128578 0.098860174 -0.051286586 -0.18811828 0.26459768
00000000: 8ead 2bbe 6b88 10be 1d40 31be fee2 3b3c
00000010: 77aa c73d a424 56bd 7bb2 b23d a8c2 bebe
00000020: 6a1f 293e ffea 7bbe 9a86 2a3e f459 29bd
00000030: 5d4c d63c 5a95 483d 2555 2dbd fd98 933e
00000040: b390 11bc e4e4 54bd 903b 46bc fefe 26bc
00000050: 5af7 c63d 43fb 2e3d 4c4a ee3d b0c0 1b3e
00000060: 1205 bfbc e608 963c 30c9 f3bd b411 803e
00000070: 81aa f23d 376f b0bd fdb4 4c3e 3735 f03c
00000080: b822 0c3e ae2f 793d 6c88 483e 7f87 343e
00000090: 32bd 01bd d4f2 65bd 2dc4 4e3e c3b1 f1bb
000000a0: 6104 68bc 94b8 b73d a7f2 823e 94a6 9dbc
000000b0: 34c7 c5bd 8e16 9cbe 0e19 48be f619 04bd
000000c0: 62ce 413e 1100 81be 5773 5c3d f227 91be
000000d0: ec72 ea3c 156d 1dbd 0528 9ebd 29dc 07bc
000000e0: a884 c2bd 2003 bc3d 87f0 483e c48b 95be
000000f0: 5d41 e5bd 00f8 613e b21c 093e 0806 36bd
00000100: 3387 8b3a b156 39bd 56aa fa3d 3385 20be
00000110: e165 d7bd 5066 2dbe 167e fabb 15a2 5b3d
00000120: a4df 0a3b aa07 31be 27d4 1c3e 60f2 203c
00000130: a61e 0f3e 5c70 5d3d ae8f 423c 710b ecbd
00000140: 6fbc 18be ddb6 02be 30c7 babc d40c 60bd
00000150: e58a 3cbe 11b9 0fbe 3eb8 12be 154e 0c3c
00000160: acbd 99bd a780 9a3d c2fb 843d 3e81 8b3c
00000170: 6d94 0a3e f996 78bd 4ecc b03e 81e9 a83e
00000180: f101 a8bc 7a55 243e 257c 8f3e ca81 803d
00000190: 21fe 40bd 1240 2bbe 6a57 db3e 0012 48bc
000001a0: 006e 09be a8b8 8cbe 9892 543e 8dda d13d
000001b0: 7c2c 34be 4228 abbe 4fcc 883e b522 edbd
000001c0: 6cd7 8f3e b348 9e3e 9411 98bd adc8 84be
000001d0: 57a6 21bd 30fa b83e 0467 babd a2ec d2be
000001e0: 7edb a0be 0bf6 b93c ef1b 703e ac0e 05bd
000001f0: 85d5 a83e 9f08 153e a1db 753e 16e4 1dbc
00000200: 9964 d8bd 7549 aabd 0c75 2e3d cb1d f2bd
00000210: 6ac2 fdbd 19e9 c3be e776 a33e ba3e 3e3e
00000220: 82ab 7fbc 5e6b 553e 308f ab3d 8fe3 003e
00000230: a5ce f8bc 0f6e f93d bf37 23be b441 733e
00000240: 9faf 79be 8814 8c3e 9dce 97bd bd61 873e
00000250: 5726 a8be e893 0bbe 5b6e 0e3e 5216 3f3e
00000260: c073 6dbe 79ee 70bd 1675 983e 14cf b0bd
00000270: 50a6 88bd e83f 26bd b058 b7bd b669 05bc
00000280: 75f0 fbbd e8c9 f5bc 366e 68be bfea aabc
00000290: 16c4 1fbd 09b5 ca3c f41d 743d 391d cbbd
000002a0: 2ea9 a5bc 1dc6 533e 6359 c63d 3885 b8bd
000002b0: 2f96 0dbe 13ca 11be 88f1 a4bd bd87 10be
000002c0: fd36 4fbe 8f34 103c 2626 21be cd5b 7ebc
000002d0: 15cc 5d3e 3fa2 653e bbaa 763c d73d 463e
000002e0: d28c fcbd 8b8d ec3e 536c f1bc 8430 6c3e
000002f0: 5023 2dbd 2f86 9bbc 561d 263e 8997 b9bd
00000300: a7b2 0a3e 079e 30be 75a0 393d e912 babd
00000310: e72a 6dbe 1b17 3a3d b636 acbd 99d9 9cbe
00000320: e456 213d d6fa bbbd fa1c 7e3e 71cb 84be
00000330: 7a5b 22be 4e87 b43d d1dc 66be 16ef 0f3d
00000340: 15f7 f03d a8e3 303e ad85 a2be 04d4 7d3e
00000350: aeb6 acbd 4fb2 5bbe 03e0 de3d f6f4 54bc
00000360: 6158 e73d 88bf 7cbd 0658 7d3d 2c7b 96bd
00000370: 5b12 333e 1185 b33e a0cf 193e b04e 85be
00000380: 3989 26bd 2ac8 d6be 4197 d7bd e184 a5bd
00000390: 375a 253e 394a 3fbe debd fb3d da19 1cbe
000003a0: cee9 ba3d 1ce1 923d 3c2c b2bd 65c7 9dbe
000003b0: 63d1 b63d 0c3d be3d 314f 6c3e 056c 463e
000003c0: 65c0 6c3e da11 f43b 481c a23d 1a2d 1dbd
000003d0: 5b5b 86bd bcec dcbd abec 963e 192b d3bc
000003e0: 70ca 2d3e ec03 333e d775 36be 4d5b 583e
000003f0: 3477 ca3d e211 52bd 14a2 40be 5979 873e

sequential/net/while/gru_cell/MatMul_4 f4 [20, 20]
-0.41049248 0.10807419 -0.0019103538 0.3628584 0.34127918 -0.40564054 -0.061804928 0.3652169
0.061733447 0.21275231 0.26399532 -0.27067757 -0.021045992 -0.29730138 0.15970092 -0.34520748
0.07188619 0.09969295 0.2653797 -0.11482313 0.034961257 -0.0824172 -0.07250031 -0.06409678
0.32094294 0.019535929 -0.071408965 0.09269177 0.033135787 0.017031744 0.047447003 -0.025727674
-0.35623834 -0.007852806 0.17924878 0.05594712 -0.10725489 0.13753118 0.3417882 -0.038417675
-0.019512394 -0.11718712 -0.11059231 -0.32921824 0.14040147 -0.13589016 -0.12613353 0.05212683
-0.00966591 -0.1068437 0.07303932 -0.03836279 -0.049754772 -0.14974324 0.21812433 0.08841405
0.026182232 0.21653832 -0.19357225 -0.042265445 -0.34726834 -0.09645318 0.12098058 0.19126508
0.029778605 -0.0046322444 -0.13308926 -0.09129391 0.09443741 0.05286433 0.11434883 -0.13321118
0.15877217 -0.0048908195 -0.27079454 -0.2859895 -0.16896692 -0.07990872 -0.26398864 -0.22060739
-0.10488272 0.029309874 0.1042898 0.035827693 0.074635535 0.122226894 0.258015 0.09856516
0.23443696 -0.044451844 0.036488034 -0.015928727 0.01638527 0.03451442 -0.17960496 -0.11573813
-0.090770304 -0.07098809 -0.04955088 0.029910361 0.31854764 0.0022970315 0.24569614 0.0051514297
0.21306975 -0.035781134 0.036195118 0.11989328 0.13833724 0.014859965 -0.21679103 -0.013272848
0.2358422 0.11078246 -0.18327507 0.11075779 -0.018793222 0.013883901 -0.06323588 0.14038068
0.51201534 0.057340033 -0.29694372 0.08147364 0.09473712 0.16408065 0.22956218 0.15227108
0.14725208 0.16764145 0.044489156 0.03267728 -0.13449301 -0.17894153 0.093569316 -0.011970868
0.28668863 0.025575982 -0.1728739 0.0913058 0.24059959 -0.2720516 0.14155228 0.022688102
0.15952936 0.07008153 -0.0046234443 0.13360184 0.035312846 0.042346794 0.13671026 -0.15863797
0.2822424 -0.07849312 -0.25945628 -0.22240646 -0.043209027 -0.10050103 -0.05142292 0.12738234
0.014184717 -0.27364996 -0.31700698 0.058765564 0.10795476 0.14207244 0.23702133 0.336419
0.43282267 -0.05490883 -0.17563918 0.030040842 -0.09984979 0.18609914 -0.18076907 0.17625563
0.13368864 0.0315182 -0.047328733 -0.07192282 -0.17164111 -0.132829 0.14459856 0.05199967
0.04639993 0.05464782 0.16283315 -0.09648822 0.10935188 0.034642294 -0.117101125 -0.00055893726
-0.116518155 0.022792159 0.31668067 0.06462305 0.019370459 0.23970771 0.04540642 0.025604451
0.12378759 -0.35100776 0.12028685 -0.24783817 -0.30628118 -0.013811218 -0.24683698 -0.209347
0.12018174 0.013170567 0.08900655 -0.004235883 0.020822715 0.1087094 0.05144654 -0.01885236
0.24214876 0.006485945 0.009157739 0.04330035 -0.08027212 -0.08583823 -0.42361692 0.16117384
-0.26977536 0.14318739 0.034924287 0.052018926 0.033763103 -0.108392596 -0.111734614 -0.0013922498
0.20922647 -0.040258188 -0.03263695 -0.14859977 -0.06919596 0.23657763 0.052309968 0.26696283
-0.16109776 -0.02055628 0.13821402 0.04927606 -0.012033231 0.04884238 -0.13053237 0.16078754
0.041637417 0.05345942 -0.09647133 -0.16992748 0.37686893 0.23035653 0.05412347 -0.1622244
00000000: 122c d2be 0056 dd3d d664 faba 94c8 b93e
00000010: 25bc ae3e 1eb0 cfbe 2a27 7dbd b6fd ba3e
00000020: 36dc 7c3d bedb 593e 652a 873e 4096 8abe
00000030: a568 acbc e337 98be a388 233e 09bf b0be
00000040: 1139 933d d12b cc3d d9df 873e 6428 ebbd
00000050: 8933 0f3d 59ca a8bd 0b7b 94bd 2c45 83bd
00000060: a252 a43e d009 a03c dd3e 92bd 2fd5 bd3d
00000070: 64b9 073d 2886 8b3c ca57 423d d8c2 d2bc
00000080: df64 b6be 0ea9 00bc fe8c 373e cf28 653d
00000090: 74a8 dbbd f9d4 0c3e ddfe ae3e da5b 1dbd
000000a0: 75d8 9fbc cdff efbd 397e e2bd 4b8f a8be
000000b0: 67c5 0f3e ca26 0bbe 2629 01be f182 553d
000000c0: c45d 1ebc dfd0 dabd a495 953d 4d22 1dbd
000000d0: a9cb 4bbd 4b56 19be fc5b 5f3e 6d12 b53d
000000e0: 1f7c d63c 39bc 5d3e ce37 46be 881e 2dbd
000000f0: 28cd b1be 3f89 c5bd abc4 f73d feda 433e
00000100: 43f2 f33c 15ca 97bb 8d48 08be 4df8 babd
00000110: 6768 c13d 4588 583d b82f ea3d 8368 08be
00000120: 2c95 223e 2b43 a0bb 95a5 8abe 376d 92be
00000130: aa05 2dbe 2fa7 a3bd 8529 87be e7e6 61be
00000140: c0cc d6bd 431b f03c e495 d53d 0fc0 123d
00000150: 84da 983d 1852 fa3d 8b1a 843e 88dc c93d
00000160: 3e10 703e 2313 36bd 7a74 153d f67c 82bc
00000170: 673a 863c fe5e 0d3d 5dea 37be 1d08 edbd
00000180: c8e5 b9bd 3462 91bd ddf5 4abd 9306 f53c
00000190: ad18 a33e cb89 163b c597 7b3e 53cd a83b
000001a0: f52e 5a3e 3d8f 12bd 5541 143d 9c8a f53d
000001b0: 47a8 0d3e 3677 733c 78fe 5dbe 5c76 59bc
000001c0: 9e80 713e eae1 e23d 76ac 3bbe fbd4 e23d
000001d0: 3ef4 99bc 4d79 633c d081 81bd f4bf 0f3e
000001e0: 7013 033f 62dd 6a3d 0209 98be a7db a63d
000001f0: 8905 c23d c204 283e 5912 6b3e f3ec 1b3e
00000200: 40c9 163e 33aa 2b3e 433a 363d 9dd8 053d
00000210: 89b8 09be 733c 37be 45a1 bf3d 7621 44bc
00000220: dac8 923e b984 d13c db05 31be 89fe ba3d
00000230: bd5f 763e 594a 8bbe 15f3 103e 66dc b93c
00000240: aa5b 233e e886 8f3d 4380 97bb ecce 083e
00000250: 34a4 103d d573 2d3d c6fd 0b3e fe71 22be
00000260: 1382 903e 00c1 a0bd 74d7 84be 85be 63be
00000270: f3fb 30bd 7cd3 cdbd d7a0 52bd 8470 023e
00000280: 0467 683c d91b 8cbe bd4e a2be 29b4 703d
00000290: 6317 dd3d 707b 113e b8b5 723e 1c3f ac3e
000002a0: ef9a dd3e 15e8 60bd c2da 33be 3618 f63c
000002b0: 0c7e ccbd c690 3e3e 871b 39be 5b7c 343e
000002c0: ade5 083e 3a19 013d c6db 41bd 454c 93bd
000002d0: b0c2 2fbe 5304 08be a511 143e 9bfd 543d
000002e0: da0d 3e3d 64d6 5f3d bcbd 263e 9e9b c5bd
000002f0: e1f3 df3d 14e5 0d3d b7d2 efbd a585 12ba
00000300: 12a1 eebd 9fb6 ba3c f823 a23e 1759 843d
00000310: ccae 9e3c f075 753e 15fc 393d 6dc0 d13c
00000320: 5984 fd3d 4ab7 b3be f458 f63d 4ac9 7dbe
00000330: e3d0 9cbe 7248 62bc d5c2 7cbe 0f5f 56be
00000340: d821 f63d 5dc9 573c 1149 b63d 29cd 8abb
00000350: 6694 aa3c 09a3 de3d 9bb9 523d 4470 9abc
00000360: d8f5 773e 0d88 d43b 570a 163c b55b 313d
00000370: b665 a4bd f4cb afbd 51e4 d8be c10a 253e
00000380: ff1f 8abe b79f 123e c50c 0f3d cc11 553d
00000390: 2e4b 0a3d f0fc ddbd 1ed5 e4bd 277c b6ba
000003a0: 773f 563e c5e5 24bd 53ae 05bd 8a2a 18be
000003b0: 9db6 8dbd 6841 723e fa42 563d 5aaf 883e
000003c0: d0f6 24be a565 a8bc fa87 0d3e b2d5 493d
000003d0: 0727 45bc f30e 483d 47aa 05be 7da5 243e
000003e0: ff8b 2a3d 44f8 5a3d c392 c5bd 7801 2ebe
000003f0: f7f4 c03e 95e2 6b3e 92b0 5d3d 271e 26be

sequential/net/while/gru_cell/MatMul_5 f4 [20, 20]
-0.10714856 -0.01268591 0.033447295 -0.31859028 -0.25955755 0.080180734 -0.3002879 -0.15328068
-0.15397617 0.041251156 -0.23405553 0.19014397 -0.22598638 0.07965516 -0.21508594 0.18616107
-0.14380513 0.3209365 0.15966015 0.12543985 -0.012789565 0.058049638 -0.18200786 -0.06820078
-0.1191449 -0.13640815 -0.047777988 0.078521386 -0.124392755 0.3357154 -0.08620729 -0.43577275
-0.10022069 -0.049235694 0.4576838 0.24591705 -0.13149686 0.29053137 -0.047263887 0.2848922
0.34830818 0.296662 0.13439159 -0.042748045 0.080417454 -0.23902783 -0.14378221 0.17255504
-0.18813226 0.13429174 -0.2024434 0.2598508 -0.063283466 0.022052325 0.071875915 -0.013435478
-0.1473793 0.16750602 -0.0077343117 0.24572334 -0.0087391855 -0.29783922 -0.26099488 0.029478466
0.19297993 0.14028102 -0.09612923 0.29162017 0.05147103 -0.14932154 0.12426205 -0.09837029
0.22018966 -0.20930256 -0.025406675 0.016378231 -0.3513311 -0.53731394 -0.20516162 -0.013490937
-0.04211059 -0.2311815 -0.16018856 0.3186321 0.1995842 0.11901108 0.40385786 0.23061003
0.3298417 -0.023866368 -0.082943305 -0.03397329 0.048984934 0.08768505 -0.18343087 -0.1601777
-0.019594606 -0.05615259 -0.11731851 -0.12640925 0.15237541 -0.38435882 -0.32408234 0.26823997
0.01475786 -0.010122791 0.12849715 -0.044001333 -0.091347225 -0.27336448 0.2872947 0.029927818
0.23632619 -0.16520743 -0.08505495 0.05420761 0.011477187 -0.027297067 0.04108729 -0.12996583
-0.034524947 -0.17603837 0.2314292 0.053382505 -0.035345834 -0.23098294 0.018008327 0.17793436
0.27112427 0.2827327 -0.015890658 0.35871595 0.032982092 -0.088221334 -0.34506106 0.32142806
0.13473849 0.06920842 -0.30505964 -0.262338 -0.041318983 -0.085931964 -0.30007213 0.07167097
0.19495879 0.10230955 0.16828561 0.28212056 0.101103775 0.2066611 -0.082377195 -0.3589735
0.17166504 -0.0425326 -0.39059928 0.05061161 0.117087014 -0.15932147 -0.11876967 -0.1259989
0.13741589 -0.06614239 0.032871593 -0.054732546 0.11959078 -0.004138097 0.11233967 0.3669256
-0.0012239881 0.03974707 -0.32409433 -0.13635145 0.1756945 0.16347262 -0.031676773 0.3657302
-0.025134912 -0.38839296 -0.112986684 0.0074283797 0.0020301805 0.19180073 0.05348072 0.055020772
0.017902657 0.34203315 0.079434395 -0.0063209487 -0.24851881 0.21037957 -0.16003142 -0.44115758
-0.18426542 -0.003025875 0.039582446 -0.07260597 0.17802396 -0.047446884 0.0965188 0.05343475
-0.029261826 -0.16841823 -0.005927945 0.15864946 0.15176482 -0.4568747 0.16476873 -0.07933575
0.25830743 -0.14708124 0.19344704 -0.062537 0.3708693 -0.14615811 -0.04231703 -0.14035171
0.09028683 0.27059588 -0.3002955 0.043577384 0.27242038 0.12617649 0.11624215 -0.24979469
-0.019440157 0.10193673 0.21074298 -0.09934813 -0.24188745 0.1691761 0.110594645 0.12819026
-0.2152064 0.1337257 -0.2655698 -0.19359191 -0.12202911 0.22543563 -0.020689188 0.09419434
-0.30024847 -0.20849004 -0.08960542 0.26386333 0.14476193 -0.22504945 0.06561861 0.14079455
-0.024911638 -0.48451215 -0.3541934 -0.030267665 0.10537896 0.12929942 0.11637921 -0.06807515
00000000: b470 dbbd 90d8 4fbc 0800 093d 441e a3be
00000010: bae4 84be cc35 a43d 56bf 99be 9cf5 1cbe
00000020: eeab 1dbe f9f6 283d 41ac 6fbe 1ab5 423e
00000030: f968 67be 3f22 a33d 7d3f 5cbe 02a1 3e3e
00000040: a741 13be ca51 a43e f37d 233e 4e73 003e
00000050: 538b 51bc 75c5 6d3d 4560 3abe daac 8bbd
00000060: 3e02 f4bd 94ae 0bbe dab2 43bd d2cf a03d
00000070: a1c1 febd e4e2 ab3e 738d b0bd 9b1d dfbe
00000080: 8140 cdbd 5eab 49bd 8855 ea3e aed1 7b3e
00000090: 1da7 06be 87c0 943e c797 41bd 64dd 913e
000000a0: 7355 b23e 15e4 973e f39d 093e 9318 2fbd
000000b0: e8b1 a43d b6c3 74be a53b 13be 45b2 303e
000000c0: bea5 40be c683 093e 534d 4fbe 2a0b 853e
000000d0: c39a 81bd 14a7 b43c ae33 933d 7b20 5cbc
000000e0: 99ea 16be b386 2b3e 1c70 fdbb e69e 7b3e
000000f0: cd2e 0fbc 627e 98be 1fa1 85be d37c f13c
00000100: 889c 453e d4a5 0f3e 67df c4bd 3d4f 953e
00000110: 49d3 523d bfe7 18be 1a7d fe3d 5d76 c9bd
00000120: 6679 613e 6953 56be a921 d0bc a42b 863c
00000130: ace1 b3be 688d 09bf e315 52be 1709 5dbc
00000140: 277c 2cbd d8ba 6cbe 7808 24be bf23 a33e
00000150: cd5f 4c3e 15bc f33d 75c6 ce3e 0925 6c3e
00000160: 03e1 a83e 6783 c3bc 2ede a9bd 9427 0bbd
00000170: 6da4 483d 3894 b33d 4dd5 3bbe 9f05 24be
00000180: de84 a0bc 4200 66bd b044 f0bd 6d71 01be
00000190: 4d08 1c3e aeca c4be 1fee a5be c056 893e
000001a0: f4ca 713c 10da 25bc c294 033e be3a 34bd
000001b0: 4114 bbbd 6ef6 8bbe 4a18 933e 2f2b f53c
000001c0: 7eff 713e 232c 29be 4a31 aebd cd08 5e3d
000001d0: d00a 3c3c 199e dfbc 254b 283d c315 05be
000001e0: 086a 0dbd 6743 34be c7fb 6c3e 9da7 5a3d
000001f0: cbc6 10bd cb86 6cbe 3386 933c 6d34 363e
00000200: cdd0 8a3e 57c2 903e 202d 82bc 9ea9 b73e
00000210: 3b18 073d 63ad b4bd d8ab b0be 3892 a43e
00000220: e3f8 093e 25bd 8d3d c730 9cbe 2b51 86be
00000230: 183e 29bd 19fd afbd 0ea3 99be 3bc8 923d
00000240: 47a3 473e ab87 d13d 1053 2c3e 1b72 903e
00000250: 7f0f cf3d f89e 533e 60b5 a8bd 60cb b7be
00000260: f6c8 2f3e aa36 2ebd a1fc c7be 1f4e 4f3d
00000270: 51cb ef3d 2b25 23be 833d f3bd db05 01be
00000280: c0b6 0c3e a975 87bd 5da4 063d 3c2f 60bd
00000290: 03ec f43d e098 87bb 5712 e63d acdd bb3e
000002a0: 3a6e a0ba d3cd 223d b1ef a5be b79f 0bbe
000002b0: 42e9 333e 5e65 273e 81bf 01bd fd40 bb3e
000002c0: bbe7 cdbc 71db c6be 9065 e7bd c469 f33b
000002d0: c70c 053b 6967 443e 990e 5b3d 765d 613d
000002e0: 98a8 923c f81e af3e 80ae a23d f61f cfbb
000002f0: b77b 7ebe be6d 573e 47df 23be 68df e1be
00000300: 13b0 3cbe c24d 46bb 3421 223d 70b2 94bd
00000310: ea4b 363e aa57 42bd a6ab c53d 65de 5a3d
00000320: 7fb6 efbc d475 2cbe 353f c2bb 0175 223e
00000330: 3d68 1b3e 7beb e9be 22b9 283e c87a a2bd
00000340: df40 843e 779c 16be fb16 463e 6613 80bd
00000350: 95e2 bd3e 79aa 15be 9f54 2dbd 5cb8 0fbe
00000360: 4de8 b83d 8b8b 8a3e 55c0 99be 337e 323d
00000370: af7a 8b3e 6934 013e 5d10 ee3d 2eca 7fbe
00000380: f740 9fbc 34c4 d03d 02cd 573e 0877 cbbd
00000390: 58b1 77be 803c 2d3e 727f e23d 4f44 033e
000003a0: 115f 5cbe 64ef 083e c4f8 87be f53c 46be
000003b0: 66ea f9bd 99d8 663e 5f7c a9bc f6e8 c03d
000003c0: 2bba 99be 6a7e 55be 0c83 b7bd 1819 873e
000003d0: 793c 143e 5d73 66be 0d63 863d 722c 103e
000003e0: 7e13 ccbc fa11 f8be d658 b5be e5f3 f7bc
000003f0: edd0 d73d 1167 043e 3958 ee3d fc6a 8bbd

sequential/net/while/gru_cell/MatMul f4 [20, 13]
0.034238767 0.1286297 0.08971701 -0.09474684 0.1583897 -0.25750676 -0.19341609 0.21898532
-0.1876412 -0.07346654 0.44617623 0.040309027 -0.006630749 0.0525846 -0.014325957 -0.028444353
-0.33437216 0.2259641 -0.019024327 0.060444385 -0.37848726 -0.5176194 -0.54390055 -0.5453412
0.16272713 0.2675545 0.049739297 0.03916949 0.4126229 0.10477176 0.14895225 0.1313089
0.11184174 0.42768967 -0.36187655 0.33442166 0.69396037 0.040971722 -0.43831006 -0.016554013
0.02240729 0.20461906 0.14913222 0.019500809 -0.25820768 -0.31607515 0.013331301 0.06542406
0.20282139 0.803989 0.20053472 0.17712386 0.2610269 -0.04326661 -0.22013503 0.08824734
-0.057490718 -0.13949446 -0.07513809 0.46686798 -0.15041035 -0.3849643 -0.0013570014 -0.029095529
0.11751887 0.0681546 0.039070796 0.33187422 0.046734028 0.016252387 0.22874378 -0.3336781
-0.20946729 -0.4546529 -0.047123823 0.39433157 -0.71965456 -0.14105266 -0.22715797 -0.04858363
0.021404594 0.18001029 -0.033854067 -0.15521543 0.2678336 0.72974205 0.074452035 -0.025835894
0.22568229 0.3532857 -0.23523305 -0.08966641 -0.10745597 0.116848536 0.22198376 0.07191938
0.16508041 -0.045745734 0.12448353 -0.15161961 -0.06883348 0.0666999 0.5561443 0.2751857
-0.13719955 -0.036121406 -0.026101971 0.2850792 0.12670656 -0.36267233 -0.07827463 -0.1426631
-0.24155879 0.2700368 -0.4933064 -0.19819295 -0.25524536 0.093427025 0.021849722 0.115719795
-0.3127661 0.15002277 0.23073088 -0.17110398 -0.55053085 0.33681172 0.30082968 -0.5296709
-0.100070894 0.2331433 0.20727263 0.036636133 -0.18698545 0.0536096 0.2134176 -0.42502505
-0.18603766 -0.08040155 -0.15361515 -0.31458238 -0.048969764 -0.17007922 -0.49716544 -0.15311588
0.08315843 0.13864411 -0.11366295 -0.09827105 -0.031168537 0.21372285 0.10000132 0.36013994
-0.17448284 -0.059054647 0.3565246 -0.015567536 0.015686912 0.08304488 -0.19912778 -0.17679349
-0.23962002 -0.069536485 -0.43422568 -0.095172785 0.037052512 -0.08335563 -0.37933213 0.418583
0.1853528 -0.065784685 -0.40758112 0.033230554 -0.16938215 0.1501086 0.047309674 -0.2078131
0.10492181 -0.1235574 0.25819406 0.36811596 -0.37698123 -0.3790302 0.007863668 0.10412075
-0.03740147 0.067917965 0.26996166 0.17505932 0.11268473 0.0788992 0.24475889 0.38876373
0.0059424397 0.091600195 -0.26682818 0.23796806 0.037257437 0.056812573 0.14683375 -0.022620698
-0.22982836 0.1393772 0.008093919 0.10943769 0.11096894 0.3421789 0.09959984 0.07977821
0.023087908 0.06263644 0.15914276 0.17793633 0.2408084 0.4740782 -0.6052394 0.16607875
0.42751554 0.039939873 0.517123 -0.330993 -0.011554727 0.09051495 0.15450567 -0.14261681
0.17588727 -0.2746087 -0.113311574 -0.50633144 -0.05228007 -0.3501715 -0.2729176 0.10064054
-0.24442147 -0.014121168 -0.023028929 0.030742075 -0.40874562 -0.20571081 0.17001626 0.25391638
-0.008244052 -0.10129294 -0.14690378 0.18691976 0.060403004 0.065413214 0.26331025 0.6217379
-0.15006265 -0.08780459 0.16104952 -0.07054744 -0.06680541 -0.33323243 0.05588193 0.0082865935
00000000: f33d 0c3d 81b7 033e 8dbd b73d a20a c2bd
00000010: e930 223e edd7 83be de0e 46be b03d 603e
00000020: 0425 40be a075 96bd 3671 e43e 141b 253d
00000030: c146 d9bb f362 573d 6bb7 6abc 2204 e9bc
00000040: d432 abbe 2263 673e e8d8 9bbc 8894 773d
00000050: 15c9 c1be b482 04bf 113d 0bbf 7b9b 0bbf
00000060: f1a1 263e e7fc 883e 6fbb 4b3d 3070 203d
00000070: 4f43 d33e 9492 d63d f086 183e d775 063e
00000080: 480d e53d 24fa da3e e247 b9be 5139 ab3e
00000090: 63a7 313f f7d1 273d 2d6a e0be 489c 87bc
000000a0: 7e8f b73c a987 513e 1eb6 183e 29c0 9f3c
000000b0: cc33 84be 9ad4 a1be 876b 5a3c 0dfd 853d
000000c0: 69b0 4f3e 39d2 4d3f f958 4d3e f55f 353e
000000d0: 51a5 853e 5438 31bd 146b 61be 05bb b43d
000000e0: 637b 6bbd a3d7 0ebe 00e2 99bd 5209 ef3e
000000f0: 2c05 1abe 0a1a c5be 69dd b1ba bf59 eebc
00000100: bcad f03d a494 8b3d b308 203d 6beb a93e
00000110: 2e6c 3f3d ba23 853c cf3b 6a3e dbd7 aabe
00000120: 987e 56be 44c8 e8be e904 41bd d4e5 c93e
00000130: 483b 38bf 1c70 10be 199c 68be a1ff 46bd
00000140: b058 af3c 9e54 383e 90aa 0abd cbf0 1ebe
00000150: 7c21 893e 60d0 3a3f 4f7a 983d cca5 d3bc
00000160: 4219 673e dde1 b43e efe0 70be 06a3 b7bd
00000170: e011 dcbd 494e ef3d b64f 633e 784a 933d
00000180: d70a 293e e15f 3bbd 39f1 fe3d 2c42 1bbe
00000190: 91f8 8cbd f599 883d 795f 0e3f 24e5 8c3e
000001a0: 0a7e 0cbe 0af4 13bd cdd3 d5bc e7f5 913e
000001b0: 5dbf 013e 30b0 b9be 734e a0bd 4716 12be
000001c0: 305b 77be 4342 8a3e a892 fcbe 18f3 4abe
000001d0: 85af 82be ab56 bf3d 30fe b23c 80fe ec3d
000001e0: e122 a0be 929f 193e b744 6c3e e235 2fbe
000001f0: 97ef 0cbf 9672 ac3e 5906 9a3e 8398 07bf
00000200: f8f1 ccbd 1ebd 6e3e 473f 543e c50f 163d
00000210: 1d79 3fbe bd95 5b3d 258a 5a3e e29c d9be
00000220: a880 3ebe 91a9 a4bd 4a4d 1dbe f110 a1be
00000230: 8594 48bd 3f29 2ebe 788c febe 69ca 1cbe
00000240: f84e aa3d b9f8 0d3e 1fc8 e8bd 5542 c9bd
00000250: 2955 ffbc 2ada 5a3e 7ecd cc3d 4364 b83e
00000260: a1ab 32be 49e3 71bd 648a b63e fa0e 7fbc
00000270: d781 803c 6f13 aa3d 27e8 4bbe 5a09 35be
00000280: f35e 75be 2569 8ebd d452 debe f3e9 c2bd
00000290: 60c4 173d 5bb6 aabd d237 c2be 8350 d63e
000002a0: 20cd 3d3e 1fba 86bd 79ae d0be c31c 083d
000002b0: 8472 2dbe 12b6 193e cac7 413d f5cc 54be
000002c0: 3fe1 d63d aa0b fdbd 0332 843e b279 bc3e
000002d0: af03 c1be 3f10 c2be 9dd6 003c 433d d53d
000002e0: 4932 19bd 9318 8b3d 6a38 8a3e c042 333e
000002f0: 40c7 e63d e795 a13d 13a2 7a3e 0a0c c73e
00000300: ccb8 c23b e298 bb3d b49d 88be e6ad 733e
00000310: 419b 183d 4db4 683d 965b 163e 0b4f b9bc
00000320: 2058 6bbe e6b8 0e3e 5b9c 043c de20 e03d
00000330: af43 e33d 1332 af3e 00fb cb3d c262 a33d
00000340: da22 bd3c 8947 803d 52f6 223e f134 363e
00000350: 7a96 763e 61ba f23e f8f0 1abf 8c10 2a3e
00000360: 51e3 da3e fe97 233d 2c62 043f ea77 a9be
00000370: 0a50 3dbc e75f b93d bc36 1e3e 240a 12be
00000380: cb1b 343e 8399 8cbe e60f e8bd f09e 01bf
00000390: a023 56bd ae49 b3be dbbb 8bbe a11c ce3d
000003a0: 9f49 7abe 795c 67bc 2aa7 bcbc ced6 fb3c
000003b0: 1b47 d1be dba5 52be be18 2e3e 5401 823e
000003c0: 0f12 07bc ac72 cfbd f26d 16be e567 3f3e
000003d0: 2469 773d 5df7 853d 9ad0 863e 372a 1f3f
000003e0: 06aa 19be e5d2 b3bd 2aea 243e 2d7b 90bd
000003f0: 46d1 88bd 719d aabe 73e4 643d 7ec4 073c

sequential/net/while/gru_cell/MatMul_1 f4 [20, 13]
-0.13636947 0.13484582 -0.0074173883 0.13027765 -0.1924 -0.10617251 0.29610997 -0.0014084913
-0.28991133 -0.28679442 -0.43473786 0.08063744 0.060593873 -0.059467863 0.14100526 -0.3761887
0.11884775 -0.16085199 -0.18868628 0.22506317 -0.039948933 0.3700609 -0.0053957133 0.07818604
-0.35977829 -0.084745884 -0.12681088 0.31798384 -0.06873343 0.20887603 0.14046733 -0.13409862
0.059947856 -0.2071433 0.4041195 0.01787243 -0.12460927 -0.37437326 -0.039657682 0.1175162
0.08959007 0.06869044 0.450057 0.14298898 0.15207873 0.23010036 0.059398137 0.13453576
0.3163673 -0.080499224 0.05400821 -0.25931162 -0.111041754 0.047170166 -0.23525527 -0.06178514
-0.012524286 0.15881102 0.2569263 -0.00446038 0.15971287 0.46212235 -0.22461343 0.30659464
0.24909356 -0.17179671 0.16857858 0.39998877 0.3708596 0.14952894 -0.054867897 -0.3290594
-0.09818676 -0.3680944 -0.17518958 0.25651395 0.09621673 0.22836061 -0.08810703 0.14572737
-0.20438309 -0.024008397 -0.3570634 -0.30177355 -0.3358443 -0.19209746 -0.32346702 0.2798071
-0.66006476 -0.11572 -0.35556245 0.2034843 0.12564307 0.09472912 -0.2659025 0.4435308
0.5075338 -0.13959411 0.32423973 0.013724163 0.30568257 0.2972707 0.20783828 -0.13289538
0.11842385 0.086541936 -0.12640396 -0.099880725 -0.39612696 0.085331276 0.18970403 0.03554895
-0.41796976 -0.18027724 0.105902135 -0.093915194 -0.35187125 0.18640311 0.10606151 -0.40273803
0.08677982 -0.33402106 -0.7763184 -0.17516412 -0.518253 0.25278425 -0.18931901 -0.21044873
-0.39786085 0.03759712 -0.20020756 0.048793405 -0.047502834 0.10099474 -0.23380797 -0.28201917
0.16233364 0.23114437 0.4021071 0.022492647 0.57853824 0.2218767 0.43884397 0.21526848
0.060063653 0.20893843 0.2264591 -0.2463394 -0.10778094 0.04721217 -0.41582936 0.38687474
0.30526212 0.47210398 0.014152503 -0.13290493 0.021742165 0.0039288546 -0.03495273 0.03299151
0.15986732 0.05377536 0.23715794 -0.20377919 -0.46468922 -0.66804916 -0.58860403 0.26528177
0.30572373 -0.06412481 0.115380004 -0.108870044 0.027640138 -0.11754113 -0.4066549 -0.08412081
0.34755623 -0.095623836 -0.18857943 -0.00024753707 0.18267226 -0.22626446 -0.06614376 -0.106848605
0.023023993 0.013413212 -0.32182047 0.22168472 0.16647291 -0.033475555 -0.20146121 0.27329734
-0.19723801 0.07782187 0.0008242171 -0.10103791 -0.04936831 -0.35701558 0.30940372 -0.6504094
0.2496951 -0.010148331 0.026039721 -0.121048346 0.31899935 -0.34516513 -0.15809876 0.07526909
-0.03381995 0.11117683 -0.072513506 0.061061602 -0.4127688 -0.4432979 -0.38323522 0.24598308
-0.031753264 0.20990992 -0.24136887 -0.7906344 -0.38533846 -0.1817737 0.05320808 0.3847684
-0.34479782 0.15951815 -0.3082918 0.045115974 -0.090706125 -0.50932866 -0.4185557 0.33951175
0.3542593 -0.45271757 0.0812347 0.044390243 0.073169075 -0.070543475 0.05304478 -0.08560527
0.043864697 0.23538667 0.18326996 -0.29684684 -0.27612856 0.2957868 0.11924671 -0.065050274
-0.099190846 0.15201312 -0.4789398 0.007063525 0.0022888847 0.0753506 -0.12433855 0.10583879
00000000: 70a4 0bbe 0615 0a3e 900d f3bb 8167 053e
00000010: 8104 45be f970 d9bd ba9b 973e 209d b8ba
00000020: 426f 94be b8d6 92be f695 debe 3e25 a53d
00000030: 4831 783d 9394 73bd af63 103e ce9b c0be
00000040: 7366 f33d 62b6 24be fa36 41be f676 663e
00000050: 7ea1 23bd 9f78 bd3e 86ce b0bb 0120 a03d
00000060: dc34 b8be 408f adbd b6da 01be c7ce a23e
00000070: 1dc4 8cbd 99e3 553e abd6 0f3e 2651 09be
00000080: e28b 753d 601d 54be c0e8 ce3e 3469 923c
00000090: 2533 ffbd daad bfbe 1870 22bd 55ac f03d
000000a0: 007b b73d 93ad 8c3d df6d e63e b46b 123e
000000b0: 87ba 1b3e 6e9f 6b3e 764b 733d bec3 093e
000000c0: e5fa a13e c7dc a4bd b637 5d3d 7ec4 84be
000000d0: dc69 e3bd 8135 413d c2e6 70be 6a12 7dbd
000000e0: aa32 4dbc 5b9f 223e d88b 833e 6128 92bb
000000f0: c58b 233e 4d9b ec3e 1001 66be f9f9 9c3e
00000100: 6212 7f3e 7aeb 2fbe dd9f 2c3e 54cb cc3e
00000110: 4fe1 bd3e 1d1e 193e 29bd 60bd 797a a8be
00000120: 2416 c9bd df76 bcbe e664 33be cc55 833e
00000130: 470d c53d 5dd7 693e 7571 b4bd 8e39 153e
00000140: cd49 51be 42ad c4bc 04d1 b6be 1082 9abe
00000150: c9f3 abbe 32b5 44be 789d a5be e042 8f3e
00000160: 01fa 28bf 9bfe ecbd 480c b6be 305e 503e
00000170: 94a8 003e 5701 c23d 5f24 88be 7816 e33e
00000180: bced 013f c2f1 0ebe c002 a63e 50db 603c
00000190: 6d82 9c3e dd33 983e 8fd3 543e ba15 08be
000001a0: 3488 f23d e63c b13d 0a70 01be 448e ccbd
000001b0: 27d1 cabe 2ac2 ae3d c641 423e c79b 113d
000001c0: 2200 d6be 999a 38be 38e3 d83d 9c56 c0bd
000001d0: 7828 b4be 75e0 3e3e c736 d93d ae33 cebe
000001e0: 9eb9 b13d cf04 abbe cdbc 46bf 395e 33be
000001f0: 3bac 04bf f06c 813e d8dc 41be df7f 57be
00000200: 6bb4 cbbe 70ff 193d 3603 4dbe 98db 473d
00000210: 5592 42bd 55d6 ce3d 5b6b 6fbe d164 90be
00000220: ca3a 263e 1cb1 6c3e fbe0 cd3e 8042 b83c
00000230: 151b 143f a533 633e 28b0 e03e 576f 5c3e
00000240: 4e05 763d f5f3 553e e5e4 673e 6540 7cbe
00000250: 41bc dcbd 8c61 413d 96e7 d4be 7214 c63e
00000260: 514b 9c3e 9db7 f13e e6df 673c 3b18 08be
00000270: a01c b23c 9fbd 803b 982a 0fbd 1b22 073d
00000280: 42b4 233e 8d43 5c3d 88d9 723e 7eab 50be
00000290: bfeb edbe 4505 2bbf c1ae 16bf 03d3 873e
000002a0: d287 9c3e de53 83bd 5a4c ec3d 42f7 debd
000002b0: 926d e23c 67b9 f0bd 1235 d0be 8847 acbd
000002c0: e4f2 b13e 6ed6 c3bd f71a 41be ddc7 81b9
000002d0: 700e 3b3e dfb1 67be 6176 87bd 71d3 dabd
000002e0: d09c bc3c 17c3 5b3c a7c5 a4be 5201 633e
000002f0: e077 2a3e aa1d 09bd d94b 4ebe a1ed 8b3e
00000300: c3f8 49be 1361 9f3d 4610 583a f7ec cebd
00000310: 6d36 4abd bfca b6be 2a6a 9e3e 3b81 26bf
00000320: 13b0 7f3e 2f45 26bc 4151 d53c 32e8 f7bd
00000330: e253 a33e 7cb9 b0be a4e4 21be ae26 9a3d
00000340: ca86 0abd aeb0 e33d f681 94bd bb1b 7a3d
00000350: 6f56 d3be f1f7 e2be 6837 c4be fde2 7b3e
00000360: b60f 02bd a0f2 563e 6729 77be 0467 4abf
00000370: 154b c5be e322 3abe b7f0 593d 5d00 c53e
00000380: 5789 b0be ba58 233e 6cd8 9dbe 87cb 383d
00000390: 22c4 b9bd 5d63 02bf ef4c d6be 7cd4 ad3e
000003a0: 7a61 b53e 99ca e7be 615e a63d 8bd2 353d
000003b0: abd9 953d 1979 90bd 7c45 593d d151 afbd
000003c0: 78ab 333d 3409 713e 1fab 3b3e 4ffc 97be
000003d0: b960 8dbe 5e71 973e 9e37 f43d 1439 85bd
000003e0: 9224 cbbd 54a9 1b3e 9937 f5be 2475 e73b
000003f0: 1d01 163b 6a51 9a3d 36a5 febd 02c2 d83d

sequential/net/while/gru_cell/MatMul_2 f4 [20, 13]
0.16989441 0.179614 -0.14721581 -0.4277152 0.10610299 0.08697474 -0.4572799 0.10100608
-0.21216175 -0.33478218 0.15398805 0.06744637 0.56839156 0.26100573 0.1250976 0.49160486
0.25287214 -0.03793712 0.03869701 -0.19528536 -0.18348984 -0.18034434 -0.18898632 0.120372914
-0.20053412 -0.023043323 -0.013867132 -0.03873011 -0.09152361 0.13866974 0.09596096 0.05445467
0.20446275 -0.21142943 -0.6760896 -0.27449167 -0.37121806 0.42707267 -0.32113844 -0.022761183
-0.17563935 0.07136762 0.102000155 -0.13731651 0.19924684 0.15601276 0.07023283 0.090808846
0.22884297 0.07874547 -0.14912674 0.07107233 0.055896815 0.21159118 -0.08167668 -0.11512355
-0.24043316 -0.066620015 0.13703194 0.03545196 0.019147439 0.36970243 -0.4499668 0.047837164
0.10257329 0.1648607 -0.25678 -0.13923948 -0.17711173 -0.2544757 0.314816 -0.44305393
-0.073816024 0.35809103 0.47919798 0.5872248 -0.6504587 -0.07584988 -0.041694257 0.3063893
0.31486288 -0.016253762 -0.20501964 -0.048727363 -0.16207749 -0.4010223 -0.27046055 0.07034822
-0.1645764 -0.10230162 -0.021498848 0.15217558 0.29694623 -0.21582235 -0.045340255 0.12313831
0.0015750225 0.08964047 -0.09055676 -0.30248457 -0.34812453 -0.48952046 -0.021793842 -0.45795622
0.067952424 -0.023124872 -0.18740879 -0.411863 -0.28559348 0.27660432 -0.28445888 -0.2551415
0.0964183 -0.27135736 -0.30157337 0.24175128 0.11986896 0.040565766 0.17444979 -0.1911208
0.1798805 -0.40489838 -0.13725026 0.2184028 -0.35684395 -0.48000404 0.021635862 -0.24903996
-0.5980316 -0.524129 0.016368324 0.38457978 0.2027345 0.55211127 -0.2836056 -0.04590264
-0.504293 -0.029035427 -0.15242986 0.09320435 0.21387988 -0.24107477 -0.094964005 0.09241945
-0.18285486 0.09906308 -0.38459572 -0.059950374 0.09983717 -0.0047825687 -0.24171624 0.22595008
0.06399395 -0.13190743 0.11027038 0.16580503 -0.029090678 -0.030116769 0.0800182 0.27071127
0.3689457 0.19067693 0.0856291 -0.088170886 -0.27001333 -0.003435674 -0.18107328 -0.1534955
-0.28651872 -0.28809258 0.0872666 -0.15261346 -0.016350454 0.31570178 0.1780932 0.39537728
-0.13604127 -0.04038283 0.12577939 -0.24794063 0.18947136 0.4372245 -0.10502206 -0.2988776
-0.0075074104 -0.020448 0.36583328 -0.4014485 -0.50228304 0.21786517 0.22348084 0.021525312
0.3334087 -0.12833568 -0.23498616 0.095553026 -0.4655313 -0.4979777 -0.18290138 -0.4632938
-0.49774313 -0.5822855 -0.16028675 -0.17055857 0.039428636 -0.46588564 -0.18341586 -0.011854095
-0.38719693 0.2170504 -0.41987062 0.39480937 -0.30815294 -0.55090046 -0.10186823 -0.29955584
-0.13187458 0.12716064 -0.035871275 -0.26050714 -0.00650194 -0.11355113 0.088357665 -0.07101119
0.40284833 -0.24142122 0.3165077 -0.17619315 0.21720256 0.25937125 0.11469328 0.32445917
-0.13599561 -0.2574463 -0.17188756 0.2000539 -0.41438648 -0.031171698 -0.027739359 -0.10029111
0.31300387 0.3696711 0.40085226 0.14353925 0.062353816 0.27067432 -0.23348926 0.27776247
0.061767034 -0.25408658 -0.0065616504 0.124131 0.18936612 -0.08488927 0.068877906 -0.067945436
00000000: cdf8 2d3e bbec 373e bebf 16be 7dfd dabe
00000010: 864c d93d d01f b23d 9720 eabe 47dc ce3d
00000020: ee40 59be 9268 abbe 0baf 1d3e 5321 8a3d
00000030: 1c82 113f 8ba2 853e 9619 003e a2b3 fb3e
00000040: 7578 813e f463 1bbd c280 1e3d e3f8 47be
00000050: c3e4 3bbe 30ac 38be a185 41be 1386 f63d
00000060: d158 4dbe 5ac5 bcbc f832 63bc 77a3 1ebd
00000070: bb70 bbbd 71ff 0d3e 2e87 c43d dc0b 5f3d
00000080: af5e 513e f580 58be 3514 2dbf 2c8a 8cbe
00000090: 4b10 bebe 45a9 da3e 426c a4be a975 babc
000000a0: cdda 33be 3029 923d 75e5 d03d b39c 0cbe
000000b0: 5d07 4c3e cfc1 1f3e 3bd6 8f3d fdf9 b93d
000000c0: d055 6a3e 4e45 a13d aeb4 18be 5f8e 913d
000000d0: 0ff4 643d 5cab 583e 1a46 a7bd e5c5 ebbd
000000e0: 1c34 76be 1370 88bd 1a52 0c3e 1336 113d
000000f0: 17db 9c3c a349 bd3e 0c62 e6be e7f0 433d
00000100: f211 d23d 3ed1 283e ab78 83be cb94 0ebe
00000110: c75c 35be a44a 82be 902f a13e f7d7 e2be
00000120: db2c 97bd b557 b73e 7059 f53e 5d54 163f
00000130: 7684 26bf 2f57 9bbd 99c7 2abd 0fdf 9c3e
00000140: b535 a13e 9c26 85bc abf0 51be 5896 47bd
00000150: a4f7 25be cb52 cdbe ce79 8abe ba12 903d
00000160: b786 28be 8383 d1bd 5a1e b0bc ead3 1b3e
00000170: 5609 983e 8900 5dbe b4b6 39bd f02f fc3d
00000180: fc70 ce3a 6c95 b73d d375 b9bd 42df 9abe
00000190: 613d b2be 6da2 fabe 0089 b2bc 3d79 eabe
000001a0: a42a 8b3d 5f70 bdbc 17e8 3fbe b5df d2be
000001b0: 4f39 92be 159f 8d3e 98a4 91be e8a1 82be
000001c0: f576 c53d 5aef 8abe d367 9abe a68d 773e
000001d0: db7d f53d 4a28 263d f7a2 323e 2cb5 43be
000001e0: 9832 383e d74e cfbe 558b 0cbe fca4 5f3e
000001f0: 40b4 b6be 17c3 f5be b13d b13c 5504 7fbe
00000200: 9918 19bf 512d 06bf dd16 863c a4e7 c43e
00000210: a299 4f3e 2a57 0d3f c134 91be 6804 3cbd
00000220: 5919 01bf b4db edbc 9316 1cbe ece1 be3d
00000230: 5403 5b3e 4edc 76be 7d7c c2bd 6946 bd3d
00000240: 4e3e 3bbe 96e1 ca3d bbe9 c4be 868e 75bd
00000250: 6e77 cc3d 18b7 9cbb 7684 77be 755f 673e
00000260: 430f 833d be12 07be 70d5 e13d cbc8 293e
00000270: 934f eebc 71b7 f6bc 95e0 a33d ab9a 8a3e
00000280: 73e6 bc3e d040 433e 4f5e af3d f092 b4bd
00000290: 303f 8abe 0b29 61bb 466b 39be ed2d 1dbe
000002a0: 95b2 92be df80 93be d5b8 b23d b446 1cbe
000002b0: 63f1 85bc aaa3 a13e 105e 363e e46e ca3e
000002c0: 674e 0bbe 7768 25bd 50cc 003e 26e4 7dbe
000002d0: c804 423e e4db df3e ce15 d7bd 7c06 99be
000002e0: b900 f6bb 9082 a7bc 804e bb3e a88a cdbe
000002f0: 9f95 00bf 0c18 5f3e 29d8 643e da55 b03c
00000300: 8cb4 aa3e 6e6a 03be 36a0 70be 4eb1 c33d
00000310: 1e5a eebe eff6 febe 804a 3bbe d834 edbe
00000320: 30d8 febe aa10 15bf 3622 24be e8a6 2ebe
00000330: ec7f 213d 9088 eebe 5ed1 3bbe ae37 42bc
00000340: ad3e c6be 7642 5e3e 48f9 d6be 7424 ca3e
00000350: 39c6 9dbe d007 0dbf 4aa0 d0bd 625f 99be
00000360: 210a 07be 6636 023e c2ed 12bd 3161 85be
00000370: 3a0e d5bb 7f8d e8bd ddf4 b43d 516e 91bd
00000380: 2342 ce3e 2037 77be 4c0d a23e fa6b 34be
00000390: 596a 5e3e 4fcc 843e 4fe4 ea3d 831f a63e
000003a0: 6f42 0bbe 00d0 83be 4b03 30be eeda 4c3e
000003b0: 772a d4be ca5b ffbc a73d e3bc 6d65 cdbd
000003c0: 0b42 a03e 8845 bd3e 823c cd3e f4fb 123e
000003d0: b766 7f3d d395 8a3e cf17 6fbe e236 8e3e
000003e0: 6eff 7c3d a317 82be 1d03 d7bb 6538 fe3d
000003f0: 31e9 413e 6dda adbd dc0f 8d3d fa26 8bbd
